model/02-10-2023_11-38-49__anova_binary_opt_sched_on_fair.model (torch, 737559 bytes, 10 tensors)

model.0.weight f4 [512, 20]
0	0x3de3a728	0.11115867
1	0x3f89de09	1.0770885
2	0x3f058caf	0.5216779
3	0xbe08846b	-0.13331763
4	0x3ed7e7ba	0.4216898
5	0x3e3b000c	0.18261737
6	0x3dba2f37	0.09091037
7	0x3e12504b	0.14288442
8	0x3e2b9caf	0.16758989
9	0x3e753c82	0.23948863
10	0x3e11ff77	0.14257608
11	0x3f3d0049	0.7382856
12	0x3f3563ca	0.7085539
13	0x3e1d3658	0.15352762
14	0x3d5592a2	0.052141793
15	0x3eafdda5	0.3434879
16	0x3d976feb	0.073943935
17	0x3e3f3b9c	0.18675083
18	0x3ec883fd	0.391632
19	0x3eba0f91	0.3634
20	0xbeed6216	-0.46363896
21	0x3e86b654	0.2631098
22	0x3eaf0ebd	0.34190932
23	0xbe2178eb	-0.15768783
24	0xbe20ca77	-0.15702234
25	0x3dd45ff8	0.10369867
26	0xbc71bd2f	-0.014754578
27	0xbc775245	-0.015095298
28	0x3f0e277a	0.55528986
29	0x3dbe1e04	0.09283069
30	0xbcaaf7e0	-0.02087015
31	0x3e98ad56	0.29819745
32	0x3e4e6c3d	0.20158477
33	0x3f072f08	0.5280614
34	0x3e07d85b	0.13266127
35	0x3e6126bf	0.21987437
36	0x3d3e60dd	0.046479095
37	0x3cd83674	0.026393153
38	0xbe910136	-0.28321236
39	0x3d8848b9	0.06654496
40	0x3ebf154a	0.3732093
41	0x3eef10e1	0.46692565
42	0x3f01ab98	0.50652456
43	0xbddcd6a1	-0.10783125
44	0x3f2ee6bc	0.6832082
45	0x3dd559d9	0.10417528
46	0x3d212da6	0.039350174
47	0x3d2eab32	0.042643733
48	0x3e915fbf	0.2839336
49	0x3e0516b4	0.12996942
50	0x3dc33a9a	0.09532662
51	0x3f634909	0.8878332
52	0x3e64d0db	0.22345297
53	0xbd303006	-0.04301455
54	0x3ed2f5e5	0.41203228
55	0x3f372156	0.7153524
56	0xbc03078c	-0.007997405
57	0x3e8fd82a	0.28094608
58	0x3f5385ea	0.8262621
59	0x3f875c36	1.0575016
60	0xbe04a280	-0.12952614
61	0x3eaddba1	0.33956626
62	0x3ec57bcb	0.3857101
63	0xbf12e66a	-0.57382834
64	0x3dee4887	0.11634927
65	0x3dbfa5ed	0.0935782
66	0x3e710f83	0.23541074
67	0x3cfe10d5	0.031013886
68	0x3e86a790	0.26299715
69	0x3d6c01ae	0.05761879
70	0x3d483758	0.048880905
71	0x3e826c64	0.2547332
72	0x3d772d67	0.060346033
73	0x3de7800e	0.11303721
74	0x3e98067f	0.29692456
75	0x3e9b3acf	0.30318305
76	0x3dadd28a	0.08487423
77	0x3de79491	0.11307634
78	0x3f5c1d06	0.85981786
79	0x3ec4566f	0.38347194
80	0xbeca0241	-0.39454845
81	0x3d980664	0.07423094
82	0x3e1cc3b3	0.15309028
83	0x3ed32667	0.41240236
84	0x3ebd5f7c	0.3698691
85	0x3dacca47	0.08437019
86	0xbba4fe6e	-0.005035213
87	0x3e68ff64	0.22753674
88	0x3dc340ef	0.095338695
89	0xbd7a212b	-0.061066788
90	0x3e3aadc4	0.18230349
91	0x3e98e084	0.29858792
92	0x3e11381e	0.14181563
93	0x3e855168	0.2603867
94	0xbf113d50	-0.5673418
95	0x3e56ef65	0.2098976
96	0xbc40e45e	-0.011773197
97	0xbe7de9b6	-0.24796185
98	0x3d17d6e6	0.037070177
99	0xbeaddd6a	-0.33957988
100	0x3e16308a	0.14666954
101	0x3f2330f7	0.6374659
102	0x3f1c9407	0.6116337
103	0xbdab0028	-0.08349639
104	0x3efc1f86	0.492428
105	0x3ebce6db	0.3689488
106	0x3dffbf28	0.12487632
107	0x3d70d6df	0.058798667
108	0x3f5d4780	0.86437225
109	0x3e270c45	0.16313274
110	0x3b7a5f4d	0.0038203776
111	0x3f77687a	0.96643794
112	0x3ed84c2a	0.4224561
113	0x3ddba86c	0.10725483
114	0x3e813a14	0.25239623
115	0x3f0c63a6	0.5483955
116	0x3cc1377a	0.023586024
117	0x3e91f3ca	0.2850631
118	0x3e97913f	0.29603
119	0x3f3abafa	0.72941554
120	0xbdf6f533	-0.12058487
121	0x3ea5e233	0.3239914
122	0x3dfd48b1	0.123673804
123	0x3d5ccaf3	0.053904485
124	0x3f02d698	0.51108694
125	0xbe2bc71a	-0.1677517
126	0xbd280f0b	-0.04102997
127	0x3ec6e532	0.38846737
128	0x3ec8ca53	0.3921686
129	0xbe6fd1e4	-0.2341991
130	0x3dcf2e69	0.10116274
131	0x3c7ca242	0.015419545
132	0x3df4482a	0.11927827
133	0xbc602e8b	-0.013682972
134	0xbd6b8b8a	-0.05750612
135	0x3f0ffa5e	0.56241405
136	0xbd108cd3	-0.03529055
137	0xbe475b88	-0.1946851
138	0x3e6ca662	0.23110345
139	0xbd339017	-0.043838587
140	0xbe83e405	-0.25759903
141	0x3ec39214	0.38197386
142	0x3e8126cd	0.25224915
143	0xbd7e2119	-0.062043283
144	0x3e699616	0.2281116
145	0xbd8e6e55	-0.06954638
146	0x3ca83ccb	0.0205368
147	0x3e591e78	0.21203029
148	0x3e7fd831	0.24984814
149	0xbdd65fcd	-0.10467491
150	0xbe87f12e	-0.26551193
151	0x3daff52e	0.08591686
152	0x3e84503d	0.25842467
153	0x3e2aee5c	0.1669249
154	0x3e3a1c41	0.1817484
155	0x3f5b499c	0.85659194
156	0x3db47a3c	0.08812377
157	0x3d112138	0.03543207
158	0x3ef7475a	0.48296624
159	0x3e36bfea	0.17846647
160	0xbe9b77d1	-0.3036485
161	0x3e8ff443	0.28116044
162	0x3ea7b4a3	0.32755002
163	0x3e2e92ff	0.17048262
164	0x3e3fe9a0	0.18741465
165	0xbd70f9a7	-0.058831837
166	0x3e088aa8	0.13334143
167	0x3e39282d	0.18081732
168	0x3edba0ca	0.4289611
169	0xbdea4894	-0.114396244
170	0x3db5fa7c	0.08885667
171	0x3d93fb6b	0.072256885
172	0x3eb1d668	0.3473389
173	0x3e9b5af9	0.30342844
174	0x3d94cee0	0.07266021
175	0x3f130f52	0.5744525
176	0x3e1d15ae	0.15340301
177	0xbd861a9f	-0.06548046
178	0x3ef7a522	0.48368174
179	0x3e5df9fd	0.21677394
180	0xbd6918b3	-0.05690832
181	0x3ecb5d95	0.39719835
182	0x3dd9e818	0.106399715
183	0x3e363190	0.17792344
184	0x3f1d5b96	0.61467874
185	0xbd9bc853	-0.07606568
186	0xbe2e2113	-0.17004804
187	0x3ee51655	0.447436
188	0x3eef626e	0.46754783
189	0xbe15cc9b	-0.14628832
190	0xbbbc80f4	-0.005752677
191	0x3dd7b65c	0.10532829
192	0x3dc21f7c	0.094786614
193	0x3bcabc63	0.006187008
194	0xbddce5ce	-0.10786019
195	0x3f2625f5	0.6490167
196	0x3bd03e7e	0.006355106
197	0xbe97136a	-0.29507
198	0x3e8eecbd	0.27914992
199	0xbd173656	-0.036917053
200	0xbe0f122e	-0.13971779
201	0x3e1b8f8e	0.1519148
202	0x3e2c26ef	0.16811727
203	0xbd2d908b	-0.042374175
204	0x3d2e567c	0.042562947
205	0x3cf822fc	0.03029012
206	0x3e6743fe	0.2258453
207	0x3e3e37b8	0.18575943
208	0x3b194e4d	0.0023392618
209	0xbf666b08	-0.90007067
210	0x3e308551	0.17238356
211	0x3ea41267	0.3204529
212	0x3ebec5e7	0.37260363
213	0x3ed4f0bd	0.4158992
214	0xbea5c0ac	-0.3237356
215	0x3ebd90b0	0.3702445
216	0x3e8c7b06	0.2743761
217	0xbf6321d8	-0.88723516
218	0x3f4b1214	0.7932446
219	0x3d9afa89	0.07567317
220	0xbe1aa979	-0.15103711
221	0xbe4b2709	-0.1983911
222	0x3ed5cb7f	0.41756818
223	0xbf7efd4d	-0.99605256
224	0xbeab4a7a	-0.3345526
225	0x3ee3341f	0.44375703
226	0xbe9ef8ca	-0.31049186
227	0xbe9f46b1	-0.3110862
228	0x3e6af28e	0.2294409
229	0x3cb877c4	0.022518046
230	0xbe64841b	-0.22316019
231	0x3ed661ce	0.41871494
232	0x3eb0eb7b	0.34554657
233	0x3e4ea2bc	0.20179266
234	0x3c986046	0.018600594
235	0x3ea856cd	0.32878724
236	0xbeb9ad9e	-0.36265272
237	0x3d705546	0.058675073
238	0x3e50a795	0.20376427
239	0xbe14400d	-0.14477558
240	0xbe8b9880	-0.27264786
241	0x3e21a267	0.15784608
242	0x3d8a527e	0.067540154
243	0xbe06ae87	-0.13152514
244	0x3cf38446	0.029726159
245	0xbd5613cb	-0.05226497
246	0xbdd5d526	-0.104410455
247	0x3e28f7af	0.16500734
248	0x3ef8a6e2	0.4856482
249	0xbd9fcec4	-0.07803109
250	0xbdfa4516	-0.12220208
251	0xbbaa6418	-0.0051999204
252	0x3d872895	0.06599537
253	0x3da4a2fe	0.08038901
254	0xbe056821	-0.13028003
255	0x3f29733e	0.6619147

model.0.bias f4 [512]
0	0xbf1375df	-0.5760173
1	0xbed16fc7	-0.40905592
2	0xbf4bc24c	-0.7959335
3	0xbf171a9b	-0.5902497
4	0xbe52b3f6	-0.20576462
5	0xbf246aeb	-0.64225644
6	0xbf0c376c	-0.5477207
7	0xbf2093e3	-0.6272566
8	0xbf11881d	-0.5684832
9	0xbf018566	-0.50594175
10	0xbec4b3a6	-0.3841831
11	0xbec22ab8	-0.37923217
12	0xbf227dbe	-0.6347312
13	0xbf01d6a4	-0.5071814
14	0xbe85e6eb	-0.2615274
15	0xbf0be2a6	-0.54642713
16	0xbf22eb0e	-0.63639915
17	0x3d2010ec	0.039078638
18	0xbebbe009	-0.36694363
19	0x3dbbe29f	0.09174084
20	0xbf100718	-0.56260824
21	0xbe9701fa	-0.29493695
22	0xbe3c84a7	-0.18409978
23	0xbeb28a10	-0.34870958
24	0xbe02bac5	-0.1276656
25	0xbeca0583	-0.3945733
26	0xbed66305	-0.4187242
27	0xbe4be4be	-0.19911477
28	0xbf07c638	-0.5303683
29	0xbe0f0647	-0.13967238
30	0xbf2567cd	-0.6461151
31	0xbee7ed21	-0.45298102
32	0xbe8f2148	-0.2795508
33	0xbdec5fbc	-0.115416974
34	0xbe9a277d	-0.30108252
35	0xbe84083f	-0.2578754
36	0xbf215576	-0.6302103
37	0xbe20eb66	-0.15714797
38	0xbe39a572	-0.18129519
39	0xbf149bc8	-0.58050203
40	0xbd880eec	-0.06643471
41	0xbeb061db	-0.34449658
42	0xbf3ac445	-0.72955734
43	0xbf184538	-0.5948062
44	0xbee7cf9b	-0.45275578
45	0xbf0e454b	-0.5557448
46	0xbe975d21	-0.2956324
47	0xbf0768a4	-0.52894044
48	0xbe10aff1	-0.14129616
49	0xbedb2c0a	-0.42807037
50	0xbe74139c	-0.23835605
51	0xbe885856	-0.26629895
52	0xbe447eac	-0.19188946
53	0xbedfa79f	-0.43682572
54	0xbe81190f	-0.2521443
55	0xbc024454	-0.007950861
56	0xbee9154e	-0.45524067
57	0x3ca38b24	0.019963808
58	0xbec44593	-0.3833433
59	0xbf116c44	-0.56805825
60	0xbe0af6b0	-0.13570666
61	0xbef1bc36	-0.47213906
62	0xbeeb11ed	-0.45912114
63	0xbf2293b4	-0.6350663
64	0xbe815ddd	-0.25266925
65	0xbd3b9c0d	-0.04580312
66	0xbf15bc06	-0.58490026
67	0xbe265c16	-0.16246065
68	0xbf1d6aa6	-0.6149086
69	0x3c94d5e5	0.0181684
70	0xbed4a9d9	-0.41535833
71	0xbf80c8ca	-1.0061276
72	0xbea27eea	-0.31737453
73	0xbe56160f	-0.20906852
74	0xbe8b0f57	-0.2716014
75	0xbf0c7cd8	-0.54877996
76	0xbd980377	-0.07422536
77	0xbe8c72d0	-0.27431345
78	0xbf1163be	-0.5679282
79	0xbf2cf68e	-0.6756371
80	0xbecf287b	-0.40460572
81	0xbe7e1b11	-0.24815013
82	0xbe9b467e	-0.3032722
83	0xbe1de42a	-0.15419069
84	0xbe8d785c	-0.2763089
85	0xbebf3473	-0.37344703
86	0xbf29d11c	-0.663347
87	0x3dea9e0c	0.11455926
88	0xbf1e4c68	-0.61835337
89	0xbed78ce6	-0.42099684
90	0x3d53d9b8	0.051721305
91	0xbead1e1c	-0.33812034
92	0xbef7ead8	-0.4842136
93	0xbec9b1d9	-0.393935
94	0xbe27eb53	-0.16398363
95	0xbeeb8836	-0.46002358
96	0xbeb17d2d	-0.34665814
97	0xbefdbe1d	-0.49559107
98	0xbebf8a85	-0.3741037
99	0xbf144bcd	-0.5792816
100	0xbf022e67	-0.50852054
101	0xbee87214	-0.45399535
102	0xbef7f457	-0.48428604
103	0xbec360ee	-0.3815989
104	0xbe582e3b	-0.21111386
105	0xbf2b9577	-0.6702494
106	0xbe3c9347	-0.18415557
107	0xbe96b6c9	-0.2943633
108	0xbec83f84	-0.3911096
109	0xbf195e8f	-0.5990991
110	0xbe5e536d	-0.21711512
111	0xbe89d7d5	-0.2692248
112	0xbe69fb2b	-0.22849719
113	0xbda297fe	-0.079391465
114	0xbe9c87a7	-0.30572245
115	0xbe98e8a9	-0.29865006
116	0xbf541ef1	-0.8285971
117	0xbe4c52b5	-0.19953425
118	0xbf36a8de	-0.7135142
119	0xbe9fa426	-0.31179923
120	0xbf28a2b0	-0.6587324
121	0xbe9f77c1	-0.31146052
122	0xbe63fa7e	-0.22263524
123	0xbf0fad72	-0.5612403
124	0xbf00dd2c	-0.5033748
125	0xbd7327a9	-0.059363995
126	0xbe4b6130	-0.19861293
127	0xbe9dc4a0	-0.30814075
128	0xbccfdf86	-0.025375139
129	0xbe8a1e5d	-0.2697629
130	0xbd9f5a41	-0.077808864
131	0xbf1a5c4c	-0.60297084
132	0xbee62247	-0.44948027
133	0xbe2b87dc	-0.16751045
134	0xbf35ff47	-0.7109265
135	0xbd4131b2	-0.047166534
136	0xbf09dc27	-0.5385155
137	0xbf18bb8b	-0.5966117
138	0xbee6b877	-0.4506261
139	0xbf21a9fb	-0.63149995
140	0xbf1b0b21	-0.60563856
141	0xbe1f200c	-0.15539569
142	0xbe43acf2	-0.19108942
143	0xbefe3ab8	-0.49654174
144	0xbf12b6ae	-0.5731
145	0xbecced80	-0.40024948
146	0xbdd0da0d	-0.1019784
147	0xbebe012b	-0.37110266
148	0xbe999e90	-0.30003786
149	0xbb596f0c	-0.0033177761
150	0xbf01d7bb	-0.50719804
151	0xbf1baf2e	-0.6081418
152	0xbe992843	-0.2991353
153	0xbd8da531	-0.069162734
154	0xbf03fc1c	-0.51556563
155	0xbf29223d	-0.6606787
156	0xbe9ddd4e	-0.30832905
157	0xbf0e5ff4	-0.5561516
158	0xbe559ede	-0.20861384
159	0xbe32f579	-0.17476453
160	0xbf0c9316	-0.54911935
161	0xbefd1b8d	-0.49435082
162	0xbdc3b02a	-0.09555085
163	0xbd5d1070	-0.053970754
164	0xbf1cacb1	-0.61201006
165	0xbe12f64f	-0.14351772
166	0xbf013ccd	-0.504834
167	0xbe0c96bf	-0.1372938
168	0xbda26b9f	-0.07930683
169	0xbe96b341	-0.29433635
170	0xbec8a2cd	-0.39186707
171	0x3db3d893	0.08781543
172	0xbe9cd008	-0.30627465
173	0xbf2cfa3e	-0.6756934
174	0xbf166705	-0.58750945
175	0xbf1974a7	-0.5994362
176	0xbf09c6a2	-0.53818715
177	0xbd28c587	-0.041204
178	0xbe13899b	-0.14407961
179	0xbed9e35f	-0.42556283
180	0xbf22092f	-0.63295263
181	0xbe14c34c	-0.14527625
182	0xbf15632a	-0.5835444
183	0x3babffee	0.005249015
184	0xbe0df8b7	-0.13864408
185	0xbedcf02f	-0.43151996
186	0xbebb14f1	-0.36539415
187	0xbee09770	-0.43865538
188	0x3e132009	0.14367689
189	0xbeea528e	-0.4576611
190	0xbf21ad64	-0.631552
191	0xbedb26ef	-0.4280314
192	0xbf0944c6	-0.53620565
193	0xbdd0c972	-0.10194673
194	0xbe17e3c6	-0.14832982
195	0xbec0d49d	-0.3766221
196	0xbedb925b	-0.42885098
197	0xbf368352	-0.7129413
198	0xbe9eca47	-0.310137
199	0xbef39084	-0.47571194
200	0xbdbc05a9	-0.09180767
201	0xbded3576	-0.115824625
202	0xbe96e550	-0.29471827
203	0xbebd00a4	-0.3691455
204	0xbe08ebe6	-0.13371238
205	0xbde78080	-0.11303806
206	0xbf1aa9a7	-0.6041512
207	0xbe4da85d	-0.20083757
208	0xbe8dfdf6	-0.2773282
209	0xbefd2204	-0.49440014
210	0xbe4deeec	-0.20110673
211	0xbe47bd2d	-0.19505759
212	0xbefdb993	-0.49555644
213	0xbe40e756	-0.18838248
214	0xbeaf916b	-0.34290633
215	0xbf0cd215	-0.5500806
216	0xbf3ef8f7	-0.7459864
217	0xbebde187	-0.37086126
218	0x3dd37b9e	0.103263125
219	0xbed4a378	-0.41530967
220	0xbee615de	-0.44938558
221	0xbf2c7078	-0.67359114
222	0xbf104385	-0.56353027
223	0xbe48972b	-0.19588916
224	0xbf0d46e3	-0.5518629
225	0xbf15c7aa	-0.5850779
226	0xbebe1406	-0.37124652
227	0xbc86f575	-0.016474465
228	0xbe1f597a	-0.15561476
229	0xbe82bf04	-0.25536358
230	0xbf169405	-0.5881961
231	0xbf2da143	-0.6782419
232	0xbef70d63	-0.482524
233	0xbf2e5c35	-0.68109447
234	0xbe9700df	-0.29492852
235	0xbe9bfc1b	-0.3046578
236	0xbcb72193	-0.022354877
237	0xbecb14b1	-0.39664224
238	0xbebe3442	-0.37149245
239	0xbe236268	-0.15955508
240	0xbeb72bcf	-0.3577561
241	0xbecdd118	-0.40198588
242	0x3e3aa4ad	0.18226881
243	0xbe7791f7	-0.24176775
244	0xbe93d069	-0.28869942
245	0xbf15f293	-0.58573264
246	0x3d3b1f17	0.045683946
247	0xbedaf1c8	-0.4276259
248	0xbe704d11	-0.23466899
249	0xbf0cf20d	-0.5505684
250	0xbdfdd3a7	-0.12393885
251	0xbf37eedf	-0.71848863
252	0xbd013c91	-0.0315519
253	0xbf3c1ac6	-0.73478353
254	0xbec0d83d	-0.37664977
255	0xbea21318	-0.31655192

model.2.weight f4 [256, 512]
0	0x3e9c87e6	0.30572432
1	0xbe757d3b	-0.23973553
2	0x3cb15826	0.021648478
3	0x3c12e0c2	0.008964719
4	0x3e4854a1	0.19563533
5	0x3e7a3cfd	0.24437328
6	0x3e9a5366	0.30141753
7	0xbdba5f5c	-0.091002196
8	0xbbb89a20	-0.0056336075
9	0x3e0ca6e7	0.13735543
10	0xbeb36d7c	-0.35044467
11	0xbf8a3305	-1.079682
12	0xbf67b310	-0.905076
13	0xbd318a25	-0.043344636
14	0xbd275ddc	-0.040860996
15	0xbe7411a4	-0.23834854
16	0xbe20d76b	-0.15707175
17	0x3f08d02a	0.53442633
18	0x3d9ddfd3	0.07708707
19	0x3f745e93	0.9545681
20	0x3dbf91c8	0.093539774
21	0x3def49c3	0.11683991
22	0xbf929967	-1.1453065
23	0x3e22e4a5	0.15907533
24	0x3e9e5d34	0.30930483
25	0x3e956086	0.29175204
26	0x3e1cecc9	0.15324701
27	0xbf0a0f69	-0.53929764
28	0xbd0f19af	-0.034936603
29	0xbc38bd8a	-0.011275658
30	0xbe98eaac	-0.2986654
31	0xbfc8b7dc	-1.568111
32	0x3dd0610f	0.101747625
33	0xbdc96df2	-0.098354235
34	0x3f07aee3	0.5300123
35	0x3cde88a0	0.027164757
36	0x3eb7fd88	0.35935616
37	0xbe5cd946	-0.21567258
38	0xbd419bf6	-0.047267877
39	0x3da02a7e	0.07820605
40	0x3ee53e79	0.44774225
41	0x3ed53350	0.4164071
42	0x3d95854d	0.07300816
43	0xbd299c9b	-0.041409116
44	0x3f11caa4	0.5694983
45	0x3ec03b32	0.37545162
46	0xbcf8f24c	-0.030388974
47	0x3e9e9138	0.30970168
48	0x3e70a2d2	0.23499611
49	0xbdd8371e	-0.10557388
50	0xbed91187	-0.42396185
51	0xbf3284cb	-0.69733876
52	0x3df0ee0c	0.11764154
53	0x3e3542d4	0.17701274
54	0xbe674c93	-0.22587804
55	0x3f1d35ed	0.6141041
56	0xbe5baaee	-0.21451923
57	0xbdd85d6d	-0.105646946
58	0xbe46307c	-0.19354433
59	0xbbba77a0	-0.00569053
60	0x3e94207b	0.2893103
61	0x3dc4c117	0.096071415
62	0x3eb9985a	0.36249048
63	0xbdaee31c	-0.085394114
64	0x3db6adc9	0.08919866
65	0x3e841e58	0.258044
66	0xbcb035e3	-0.02151007
67	0xbec6b562	-0.3881026
68	0x3d928f96	0.07156293
69	0x3d1b3d6e	0.03790038
70	0xbd30bb53	-0.043147396
71	0x3ebf60c9	0.3737853
72	0xbeda47c7	-0.42632887
73	0xbe260628	-0.16213286
74	0xbe389664	-0.1802612
75	0xbdb43df7	-0.08800881
76	0x3eda4bda	0.42635995
77	0x3ce78da5	0.028265784
78	0x3e79055c	0.2431845
79	0xbece49cd	-0.4029068
80	0x3e0c598b	0.13706033
81	0xbf1ced25	-0.61299354
82	0xbe395438	-0.18098533
83	0x3e65f7b9	0.2245778
84	0xbebb4f05	-0.36583725
85	0xbe0a8997	-0.13529049
86	0xbed9d9ec	-0.42549074
87	0xbee51a9d	-0.44746867
88	0xbcf1c29e	-0.029511746
89	0xbdb4b787	-0.088240676
90	0xbe48a804	-0.19595343
91	0xbe6cd22c	-0.23127049
92	0x3dd8791c	0.10569975
93	0xbd5cc0e3	-0.05389489
94	0x3f06300f	0.5241708
95	0x3cba2ad5	0.022725502
96	0x3e38e259	0.18055095
97	0xbe920074	-0.2851597
98	0xbdb5b4cd	-0.08872376
99	0x3db4a98f	0.08821403
100	0x3e9f8f67	0.31164095
101	0x3e0d43bc	0.1379537
102	0x3e7d9799	0.24764861
103	0x3e681933	0.22665863
104	0x3e4f5d58	0.20250452
105	0x3de13905	0.10997204
106	0xbdaaf28f	-0.08347046
107	0xbe0128f9	-0.12613286
108	0xbd818367	-0.06323891
109	0xbb0f2e9f	-0.0021847857
110	0x3d93d471	0.07218254
111	0xbcbc906f	-0.02301809
112	0xbe2e6dd1	-0.17034079
113	0x3c2365ce	0.009973003
114	0x3dbba755	0.091627754
115	0x3dc1eaaf	0.094685905
116	0x3d8c9aef	0.06865489
117	0xbea62636	-0.32451028
118	0xbe06f99e	-0.13181159
119	0xbe8b5419	-0.272126
120	0xbebf4ef9	-0.3736494
121	0xbddb3431	-0.10703314
122	0x3cb37ec0	0.021911025
123	0xbe9ff696	-0.31242818
124	0x3de35be2	0.1110151
125	0x3e09e4d4	0.13466197
126	0xbe3127c3	-0.17300324
127	0xbf0191a2	-0.50612843
128	0xbefbc8fa	-0.4917677
129	0x3ed44231	0.4145675
130	0xbe1b2387	-0.15150271
131	0x3c22658d	0.009911907
132	0x3e8bc451	0.27298215
133	0xbe73ff78	-0.23827922
134	0xbc190cd1	-0.009341435
135	0x3d121764	0.03566684
136	0xbbf66e2d	-0.007520458
137	0xbe4cdb89	-0.20005621
138	0x3e502424	0.20326287
139	0x3ebff9fc	0.3749541
140	0x3dcdcd11	0.10048879
141	0xbeb89515	-0.3605124
142	0xbec958e1	-0.39325622
143	0x3caee8f2	0.021351311
144	0xbe93a20c	-0.2883457
145	0xbf7af6e4	-0.98032975
146	0x3d9a40f8	0.07531923
147	0xbe0a8274	-0.13526326
148	0xbe1e20db	-0.15442221
149	0xbd9f50bb	-0.0777907
150	0x3da9ea92	0.08296694
151	0x3dc2226c	0.09479222
152	0xbedb79bd	-0.42866316
153	0x3c81560e	0.015788104
154	0xbe784473	-0.24244861
155	0x3e2aac74	0.16667348
156	0x3cf33772	0.029689524
157	0xbd6094fd	-0.054829586
158	0xbe41ade0	-0.18913984
159	0xbd215799	-0.03939018
160	0x3e2b690d	0.16739292
161	0xbec1e68a	-0.378712
162	0x3d814be0	0.063133
163	0xbf1541f6	-0.58303773
164	0x3b1f7afe	0.0024334784
165	0x3d53fb06	0.051753066
166	0xbe923d8c	-0.28562582
167	0x3f112e20	0.56711006
168	0xbddcd1a3	-0.107821725
169	0x3e429a86	0.19004259
170	0xbbd4ec3b	-0.0064978874
171	0xbdc7bac1	-0.09752417
172	0x3f0e94ea	0.55695975
173	0xbd80678c	-0.0626975
174	0xbd517857	-0.051140156
175	0xbe3682b7	-0.17823301
176	0xbe035aa6	-0.12827548
177	0xbda62b29	-0.08113701
178	0x3dd6bb03	0.104848884
179	0x3e9083ee	0.28225654
180	0xbf740daf	-0.9533338
181	0x3e007733	0.12545471
182	0xbf919773	-1.1374344
183	0x3e394f62	0.18096688
184	0xbd29f637	-0.041494574
185	0xbe5733fc	-0.21015924
186	0x3cd73804	0.026271828
187	0xbe46d066	-0.19415435
188	0x3da297f6	0.079391405
189	0xbde30c91	-0.11086381
190	0x3e9a00d6	0.30078763
191	0xbd3f4e5b	-0.046705585
192	0xbf2957f0	-0.66149807
193	0x3e062b72	0.1310251
194	0x3d732b1f	0.059367295
195	0x3e6142f3	0.21998195
196	0xbe2d2a20	-0.169106
197	0xbd345c0a	-0.044033088
198	0xbe1047d2	-0.14089897
199	0x3e901c87	0.28146765
200	0xbdeb07c8	-0.114760935
201	0x3ef3abe5	0.47592083
202	0xbdce161d	-0.100628115
203	0xbeb9b989	-0.36274365
204	0xbe81e2b0	-0.2536826
205	0x3dc597de	0.09648107
206	0x3e0c9d28	0.13731825
207	0x3d80f059	0.06295843
208	0xbe918469	-0.28421333
209	0xbef01486	-0.46890658
210	0x3de36bbf	0.11104535
211	0xbf14202f	-0.5786161
212	0x3dc7033c	0.09717414
213	0x3e40a397	0.18812405
214	0x3e1ff1a3	0.15619521
215	0x3e35d16a	0.17755666
216	0xbe03817f	-0.12842368
217	0x3e4fffb0	0.20312381
218	0x3ed9e08e	0.42554134
219	0x3e942c17	0.28939888
220	0x3d9658b1	0.07341135
221	0x3d2edfe8	0.042694002
222	0xbe8e67b7	-0.27813503
223	0xbea82ae7	-0.32845232
224	0x3b9c9fde	0.0047798
225	0x3d22ec5c	0.03977619
226	0x3e5af741	0.21383382
227	0x3f6fba6a	0.9364382
228	0xbf2db003	-0.678467
229	0x3e242861	0.16031028
230	0xbd36a98f	-0.044595297
231	0xbe91dce7	-0.28488848
232	0x3e35a54d	0.17738838
233	0xbe20079b	-0.15627901
234	0x3e27c1e9	0.16382565
235	0x3e8ebfeb	0.27880797
236	0xbea9a39b	-0.33132634
237	0x3e246662	0.16054681
238	0x3e9cb47a	0.30606443
239	0xbf2ef4c1	-0.68342215
240	0x3e68ddcb	0.22740857
241	0x3de37fe1	0.11108375
242	0x3db9b42a	0.09067567
243	0xbe84e417	-0.2595527
244	0x3e8ab7f6	0.27093476
245	0x3d229e7d	0.039701927
246	0x3e304770	0.17214751
247	0xbdb952ad	-0.09048972
248	0x3f1de2fe	0.6167449
249	0xbdb7ed37	-0.08980792
250	0xbe8376ab	-0.25676474
251	0x3e03616e	0.12830135
252	0xbeb3d9c7	-0.35127088
253	0xbfadab91	-1.3567983
254	0xbf3f5868	-0.7474427
255	0x3d32c3a7	0.04364362

model.2.bias f4 [256]
0	0xbe8dd980	-0.27705002
1	0xbe475551	-0.1946614
2	0xbd8c7ddf	-0.068599455
3	0xbea959d5	-0.3307635
4	0xbeaa61b6	-0.33277673
5	0xbe558ca4	-0.20854431
6	0xbec21f44	-0.3791448
7	0xbe8ebb73	-0.27877387
8	0x3e40129c	0.18757099
9	0xbec63782	-0.38714224
10	0xbdc755bd	-0.0973315
11	0xbe0db65f	-0.138391
12	0xbd43a929	-0.047768746
13	0xbf1f4470	-0.622138
14	0xbeea9c6d	-0.45822468
15	0x3e7d1ea5	0.24718721
16	0xbdd3f132	-0.10348739
17	0xbdfa945b	-0.12235328
18	0xbe5de610	-0.21669793
19	0xbeb4e3b9	-0.3532999
20	0xbdacb96f	-0.08433806
21	0xbe98ec4f	-0.2986779
22	0xbdf3af2c	-0.11898646
23	0xbf1aab5f	-0.6041774
24	0xbeb78475	-0.35843244
25	0xbe8c73ee	-0.27432197
26	0x3dd5adbb	0.10433527
27	0xbe1fc6ca	-0.15603176
28	0xbe8fb0f5	-0.28064695
29	0x3e9f28ee	0.31085914
30	0xbe47e448	-0.19520676
31	0xbdd842c7	-0.10559612
32	0xbe9ad78e	-0.3024258
33	0xbdbd38dc	-0.09239361
34	0xbdab694f	-0.083696954
35	0xbdb3b0c4	-0.0877395
36	0xbd9129ea	-0.070880726
37	0xbeb59f29	-0.35472992
38	0xbe948355	-0.29006448
39	0xbecc3705	-0.39885727
40	0xbf1f5b06	-0.62248266
41	0x3d12bc00	0.035823822
42	0xbe9d63c4	-0.30740178
43	0xbedf5d97	-0.4362609
44	0xbd65ebcc	-0.056133077
45	0xbec1a70a	-0.37822753
46	0xbe086482	-0.1331959
47	0xbeb0d96f	-0.3454089
48	0xbe136f77	-0.14397989
49	0xbdec5a9e	-0.11540721
50	0xbead7288	-0.33876443
51	0xbe9edb13	-0.31026515
52	0xbf14f951	-0.58192927
53	0xbf376613	-0.7164013
54	0xbd37c588	-0.044866115
55	0xbe523e61	-0.20531608
56	0xbe1573b0	-0.14594913
57	0xbdd21b37	-0.10259097
58	0xbe86a7c2	-0.26299864
59	0xbd93aac1	-0.07210303
60	0xbdbc5751	-0.09196342
61	0xbeec979b	-0.46209416
62	0x3c06261e	0.008187799
63	0xbf043fff	-0.5166015
64	0xbda26b0a	-0.07930572
65	0xbdb38d72	-0.08767213
66	0xbe571be1	-0.21006729
67	0xbe2387db	-0.15969793
68	0xbec6786b	-0.38763747
69	0xbec16669	-0.37773445
70	0xbe6887d2	-0.22708061
71	0xbe8feb7a	-0.28109342
72	0xbec92f33	-0.39293823
73	0xbec89238	-0.39174056
74	0xbe348a4f	-0.17630886
75	0xbd0f00c8	-0.034912854
76	0xbea6ea78	-0.3260076
77	0xbcd2d577	-0.025736554
78	0xbe01add7	-0.12663971
79	0xbef63d01	-0.48093417
80	0xbe9b2d7f	-0.30308148
81	0xbe26d22f	-0.16291116
82	0xbdedb7c7	-0.11607318
83	0xbdb19b5c	-0.086722106
84	0x3d90333e	0.07041024
85	0xbe74e68c	-0.23916072
86	0xbed55332	-0.41665035
87	0xbea35c34	-0.31906283
88	0xbf09bed4	-0.53806806
89	0xbe2776d1	-0.16353919
90	0xbeb68965	-0.356517
91	0xbdc14b7c	-0.094382256
92	0xbf101887	-0.56287426
93	0xbefac671	-0.48979524
94	0xbe8bc336	-0.27297372
95	0xbefc879a	-0.49322206
96	0xbb4d2d81	-0.003130764
97	0xbdbccf3e	-0.09219216
98	0xbe7feb73	-0.2499216
99	0xbdf7fdea	-0.12108977
100	0xbeb09b52	-0.344935
101	0xbe5209e1	-0.20511581
102	0xbe087c6c	-0.13328713
103	0xbe4d15c3	-0.20027833
104	0xbe2defb5	-0.16985972
105	0xbf16a0af	-0.58838934
106	0xbdbea892	-0.09309496
107	0xbda56e26	-0.0807765
108	0xbe548a4b	-0.2075588
109	0xbf208fb2	-0.6271926
110	0xbddfe743	-0.109327815
111	0xbe5bc62a	-0.21462312
112	0xbd658f04	-0.056044593
113	0x3c6550cc	0.013996314
114	0xbe59e652	-0.21279266
115	0xbdb1f078	-0.08688444
116	0xbc95d0b4	-0.018287994
117	0xbde98705	-0.11402706
118	0xbe08fd83	-0.13377957
119	0xbd351189	-0.044206176
120	0xbd9865de	-0.074413046
121	0xbdf23ebe	-0.118283734
122	0xbd8cf22d	-0.06882129
123	0x3db4d210	0.08829129
124	0x3e652c4d	0.2238018
125	0xbe5492a3	-0.20759062
126	0xbec06901	-0.37580112
127	0xbe898f01	-0.26866916
128	0xbed0679b	-0.40704045
129	0xbd576f61	-0.052596454
130	0xbd5090e6	-0.050919436
131	0xbf1a4ac1	-0.60270315
132	0xbdc24b8d	-0.094870664
133	0xbe5d7123	-0.2162519
134	0xbe425c48	-0.18980515
135	0xbcf3701b	-0.029716542
136	0xbe539e05	-0.20665748
137	0xbeec85e8	-0.46195912
138	0x3bff0e7f	0.0077837105
139	0xbcc960bc	-0.02458226
140	0xbea1ef82	-0.31628042
141	0xbeb01766	-0.34392852
142	0xbdb792cf	-0.089635484
143	0xbde555bb	-0.111979924
144	0xbe420af4	-0.18949491
145	0xbd4c2070	-0.049835622
146	0xbdeccbd0	-0.11562312
147	0xbd49905b	-0.049209934
148	0x3affb847	0.0019509875
149	0xbd6453f3	-0.055744123
150	0x3e9375b0	0.28800726
151	0xbe498e81	-0.19683267
152	0x3e284ff4	0.1643675
153	0xbefa0fc9	-0.48840168
154	0xbebb6e3d	-0.36607543
155	0xbd345fc2	-0.044036634
156	0xbd9b1f1d	-0.07574294
157	0xbea56861	-0.32306197
158	0xbeb5444e	-0.35403675
159	0xbde758d6	-0.11296241
160	0xbe152b39	-0.1456727
161	0xbe762f0f	-0.24041389
162	0xbe9ea984	-0.30988705
163	0xbdd0a1f1	-0.10187138
164	0xbec04de4	-0.37559426
165	0xbe125349	-0.14289583
166	0x3df000a5	0.11718873
167	0xbe6de0ba	-0.23230258
168	0xbed4d4fb	-0.4156874
169	0xbe19f0b9	-0.15033235
170	0xbd634a4d	-0.05549078
171	0xbddc91b1	-0.10769976
172	0xbe7fc0e8	-0.24975932
173	0xbf128966	-0.57240903
174	0x3ed842b3	0.42238387
175	0xbef3dfab	-0.47631583
176	0xbe69cd61	-0.22832252
177	0x3e37e702	0.17959216
178	0xbdee7751	-0.116438515
179	0xbf166c1b	-0.58758706
180	0xbe89ab2f	-0.26888415
181	0x3de21800	0.11039734
182	0xbdb6e0eb	-0.089296184
183	0xbe61628d	-0.2201025
184	0xbd5f6667	-0.054541018
185	0xbe92a80c	-0.28643835
186	0xbd5fabeb	-0.054607313
187	0xbca4b0f3	-0.020103907
188	0xbeb6f031	-0.35730127
189	0xbe43932f	-0.19099115
190	0xbeceab54	-0.40365088
191	0xbe8473b9	-0.2586954
192	0x3eda78b4	0.42670214
193	0xbe8965cc	-0.26835477
194	0xbee31f75	-0.44359937
195	0xbdd0b3e5	-0.10190562
196	0xbf0c8f00	-0.549057
197	0xbee00276	-0.43751878
198	0xbda69a71	-0.08134926
199	0xbdb6615f	-0.08905291
200	0xbdd881ed	-0.105716564
201	0xbee56dda	-0.44810373
202	0xbe8d3cf8	-0.27585578
203	0xbd28b7c7	-0.04119089
204	0xbdf093e3	-0.11746957
205	0xbede8999	-0.43464354
206	0xbf48cefb	-0.7844083
207	0xbe818344	-0.2529546
208	0xbd8cdfef	-0.068786494
209	0xbd7a7c01	-0.061153416
210	0xbda90b2d	-0.08254085
211	0xbeb210ae	-0.3477835
212	0xbea3afb4	-0.31969988
213	0xbf04646f	-0.5171575
214	0xbe6bc3d6	-0.23023924
215	0xbf1824e5	-0.59431297
216	0xbed338ce	-0.41254276
217	0xbef6d8a0	-0.48212147
218	0xbea78b58	-0.32723498
219	0xbe00f237	-0.12592398
220	0xbd3d0912	-0.04615123
221	0x3d4ebc8c	0.05047278
222	0xbda51af2	-0.0806178
223	0xbe9a0edd	-0.30089465
224	0xbeea454e	-0.45756
225	0xbdada9ef	-0.08479678
226	0xbdd4b6b2	-0.10386409
227	0xbefab692	-0.48967415
228	0xbd763eb1	-0.06011838
229	0xbe8d1ca4	-0.27560914
230	0xbe32d52f	-0.17464136
231	0xbe96448e	-0.29349178
232	0xbea7817d	-0.3271598
233	0xbe8d03e9	-0.27542046
234	0xbee43e25	-0.44578663
235	0xbe9b42a9	-0.30324295
236	0xbe0ebd9a	-0.13939515
237	0x3e1450ec	0.14483994
238	0xbe3259af	-0.17417024
239	0xbeaa0eaf	-0.33214328
240	0xbe83fcea	-0.25778896
241	0xbdfc5e01	-0.12322617
242	0xbeeb033d	-0.45900908
243	0x3e319a43	0.17344002
244	0xbed199a4	-0.4093753
245	0xbecac45d	-0.39602938
246	0xbef703cf	-0.48245093
247	0xbe354767	-0.17703019
248	0xbe47cefc	-0.19512552
249	0xbda2653e	-0.07929467
250	0xbd639a29	-0.05556694
251	0xbe74b642	-0.23897651
252	0xbe824484	-0.25442898
253	0xbd9a3f72	-0.075316325
254	0xbebb39fc	-0.36567676
255	0xbea41a19	-0.3205116

model.4.weight f4 [128, 256]
0	0x3efd22c3	0.49440584
1	0xbd88028d	-0.066411115
2	0xbd77e546	-0.060521387
3	0x3e4400e6	0.19140968
4	0xbef47ab3	-0.47749862
5	0x3e03d0f9	0.12872685
6	0x3eca1c13	0.39474544
7	0xbd0ddd93	-0.034635138
8	0x3d8ad7c7	0.067794375
9	0x3ed9cea8	0.4254048
10	0x3e0dc60f	0.13845085
11	0xbe131605	-0.14363869
12	0xbee377fb	-0.44427475
13	0xbefedba8	-0.4977696
14	0x3e84f648	0.25969148
15	0x3e91d53c	0.28482997
16	0x3c0f240c	0.008736622
17	0x3dee0b57	0.11623257
18	0xbeac9d8f	-0.33713958
19	0x3ebc702e	0.36804336
20	0x3d92685e	0.07148813
21	0x3d2d30dd	0.042282928
22	0xbcafd5fc	-0.02146434
23	0xbf15998c	-0.5843742
24	0xbe259047	-0.16168319
25	0x3eb5f4c1	0.35538295
26	0x3eee884c	0.4658836
27	0xbeb7d738	-0.35906386
28	0x3e481985	0.19540985
29	0xbe832456	-0.2561366
30	0xbdfdd905	-0.12394909
31	0x3e0250b4	0.12726098
32	0x3de74fec	0.11294541
33	0xbe872d0c	-0.26401556
34	0x3e0314cc	0.12800902
35	0x3b7f7143	0.0038977421
36	0xbe84f8a8	-0.2597096
37	0xbc3ec5c5	-0.011643832
38	0xbd1629fb	-0.03666113
39	0xbe238c3d	-0.15971465
40	0xbec1d47a	-0.3785742
41	0x3eaa9005	0.33313003
42	0x3f577665	0.8416503
43	0x3e535c29	0.20640625
44	0x3ddab202	0.106784835
45	0x3e3f0acd	0.18656464
46	0xbe05d80c	-0.13070697
47	0x3e350b82	0.17680171
48	0x3df3ee9b	0.11910745
49	0x39df14fe	0.00042549515
50	0xbd7b4972	-0.06134934
51	0x3c341001	0.010990144
52	0x3bada174	0.0052987877
53	0x3df00b31	0.117208846
54	0x3a7d1564	0.00096543715
55	0x3e31cb8d	0.17362805
56	0x3cc25425	0.023721764
57	0xbe1d938d	-0.15388317
58	0xbec48821	-0.38385108
59	0x3d5e9765	0.0543436
60	0xbadf6810	-0.0017044563
61	0x3e9ebe92	0.3100477
62	0xbe0bac36	-0.13639912
63	0x3ecbf301	0.39833835
64	0x3d91e27c	0.071232766
65	0xbd172b46	-0.036906503
66	0xbec6a2cd	-0.38796082
67	0xbdfcf3cd	-0.12351189
68	0x3da215f8	0.079143465
69	0x3e953259	0.29139975
70	0x3ee86ee0	0.4539709
71	0xbddf2a32	-0.1089672
72	0x3ddb25e4	0.107005864
73	0xbe16b6ea	-0.14718214
74	0x3cbc99db	0.023022583
75	0x3ee05023	0.4381114
76	0xbdbd5ce9	-0.09246237
77	0x3dfaec5a	0.12252112
78	0xbe322a3a	-0.1739892
79	0x3f2f36f0	0.684432
80	0x3ddde489	0.10834605
81	0x3d601620	0.0547086
82	0x3e063925	0.13107736
83	0xbdaec479	-0.08533568
84	0xbe15557b	-0.1458339
85	0x3ebc7d0c	0.36814153
86	0x3e570ac0	0.21000195
87	0x3e730e82	0.23736003
88	0xbe1ab216	-0.15106997
89	0xbdd6a1bf	-0.10480069
90	0x3f2d24d1	0.676343
91	0xbd986b2c	-0.074423164
92	0x3e1852f1	0.1487539
93	0xbe65c7c1	-0.22439481
94	0x3ef004d9	0.46878698
95	0x3e655ae7	0.22397958
96	0xbd8fce7c	-0.07021806
97	0xbd586d7f	-0.0528388
98	0xbee78cdf	-0.45224664
99	0x3e832797	0.25616142
100	0xbdf355c6	-0.11881594
101	0x3e982037	0.29712078
102	0x3aaef522	0.0013348202
103	0xbc325315	-0.010884066
104	0x3e234492	0.15944126
105	0x3ea6d645	0.3258535
106	0x3b2dd871	0.0026526714
107	0x3dd7ef2c	0.10543665
108	0x3e1f5b39	0.15562142
109	0x3f1d4d74	0.6144631
110	0x3dd6ddcf	0.104915254
111	0x3f2064e1	0.6265393
112	0xbe253d9f	-0.16136788
113	0xbef6e0a5	-0.48218265
114	0xbeb55d3f	-0.35422704
115	0xbe902718	-0.28154826
116	0xbe48f0ac	-0.19623059
117	0x3ddf528e	0.10904418
118	0xbe90c86f	-0.2827792
119	0x3dec2592	0.115306035
120	0x3c5b5daf	0.013389035
121	0x3c37b8f7	0.011213533
122	0x3cfc7aeb	0.03082033
123	0x3ec471e6	0.38368148
124	0x3e90e7bc	0.283018
125	0xbe2ceaf1	-0.16886498
126	0x3d4dde39	0.050260756
127	0xbe479b79	-0.19492902
128	0x3f13a0be	0.5766715
129	0x3d8f4e72	0.06997384
130	0xbdf66856	-0.12031619
131	0x3ed6645d	0.41873446
132	0xbc86a30d	-0.01643517
133	0x3e69ba83	0.22825055
134	0x3dbc359c	0.09189913
135	0xbe328c2b	-0.17436282
136	0x3f2a699a	0.66567385
137	0xbd28c21a	-0.041200735
138	0x3edabc61	0.42721847
139	0x3e3e7951	0.18600966
140	0x3e11fb69	0.14256062
141	0x3eb96bb1	0.36214975
142	0xbd91a813	-0.07112136
143	0x3d4bfa45	0.049799222
144	0x3e8965b7	0.26835415
145	0xbde68ca5	-0.112572946
146	0x3ef6eb7d	0.48226538
147	0xbeb4b574	-0.35294688
148	0x3e75852e	0.23976585
149	0xbdeaf2e1	-0.11472107
150	0x3e70d9e1	0.23520614
151	0x3ef223df	0.47292992
152	0x3e236c25	0.15959223
153	0x3f23c527	0.63972706
154	0x3e55476a	0.20828024
155	0xbe8f04f3	-0.27933463
156	0x3d18da99	0.037317846
157	0x3de5b289	0.112156935
158	0x3ed6f3a7	0.41982767
159	0x3b71db2f	0.0036904325
160	0x3dd570bf	0.10421895
161	0x3e2b8756	0.16750845
162	0xbde94d0a	-0.11391647
163	0x3da44249	0.080204554
164	0xbf0eb8eb	-0.5575091
165	0xbcc7e0ad	-0.024399126
166	0x3f08551f	0.53254884
167	0xbf2b3424	-0.66876435
168	0xbc110e11	-0.008853451
169	0x3bb3ef8a	0.0054912018
170	0xbd0cc007	-0.03436282
171	0x3e28401d	0.16430707
172	0xbe2fc7c4	-0.17166048
173	0xbcc0003d	-0.023437614
174	0x3de01a48	0.10942513
175	0x3dbfde0e	0.093685254
176	0x3ce08140	0.027405381
177	0xbcf1fba1	-0.029538931
178	0xbd584bf0	-0.052806795
179	0xbd075489	-0.033039603
180	0xbccf37c5	-0.025295148
181	0x3f4b8c88	0.7951131
182	0x3c9145e2	0.017733518
183	0x3eccec7d	0.40024176
184	0xbd8d29dc	-0.0689275
185	0x3e79e9a0	0.24405527
186	0x3cb63605	0.022242555
187	0xbeb8b1c0	-0.36073112
188	0x3f11c4cc	0.56940913
189	0xbe9fe450	-0.31228876
190	0xbd73eafa	-0.059550263
191	0xbe5da743	-0.21645837
192	0xbe99507e	-0.29944223
193	0xbecb2f28	-0.39684415
194	0x3eaee230	0.34156942
195	0xbe53d66b	-0.20687263
196	0xbe89b918	-0.26899028
197	0x3e1ef000	0.1552124
198	0xbdfba0d9	-0.12286539
199	0x3d9f1a43	0.07768681
200	0x3d8d46f6	0.068983
201	0xbec70f92	-0.38879067
202	0x3f10899a	0.56459963
203	0x3da0468f	0.07825958
204	0x3d1a20c8	0.03762892
205	0xbdd617d3	-0.10453763
206	0xbec4dc22	-0.38449198
207	0xbf048156	-0.5175985
208	0xbdaa2823	-0.08308437
209	0xbbf85cc2	-0.007579417
210	0x3b1dab10	0.002405826
211	0x3f1b9ac0	0.60783005
212	0xbd34fdae	-0.04418724
213	0x3ec63318	0.38710856
214	0x3da35ece	0.07977067
215	0x3de0bf43	0.1097398
216	0x3eb09361	0.3448744
217	0x3f06baae	0.526286
218	0xbe56b2de	-0.2096667
219	0xbe34f1e7	-0.17670403
220	0xbdea5c1e	-0.11443351
221	0x3f84eca9	1.0384723
222	0x3cd7f830	0.026363462
223	0x3e2feda6	0.171805
224	0xbf67d06d	-0.9055241
225	0xbca0673a	-0.019580472
226	0x3d160e2c	0.03663461
227	0x3de89990	0.11357415
228	0xbddfccb1	-0.10927714
229	0x3de55d07	0.11199384
230	0xbf0f6e75	-0.5602792
231	0x3d8a6628	0.06757766
232	0xbe1bebae	-0.15226623
233	0x3ebda1ea	0.37037593
234	0xbf07b5cf	-0.5301179
235	0x3d8142ee	0.06311594
236	0xbe818db1	-0.25303414
237	0x3eed149d	0.4630479
238	0x3f2b159d	0.66829854
239	0x3e480d81	0.19536401
240	0xbd03bfe3	-0.03216542
241	0xbda1011b	-0.07861539
242	0x3b2950b0	0.0025835447
243	0xbf8b360b	-1.0875868
244	0x3b781176	0.0037852204
245	0x3eb16140	0.34644508
246	0x3ef63e4c	0.48094404
247	0x3d810057	0.06298893
248	0x3e0d6931	0.13809659
249	0x3d1106b8	0.035406798
250	0xbdb4e1fd	-0.08832166
251	0xbe054355	-0.13013966
252	0x3e46436b	0.19361655
253	0x3e09e447	0.13465987
254	0x3f10d196	0.565698
255	0x3dc08499	0.09400291

model.4.bias f4 [128]
0	0xbe4859f5	-0.19565566
1	0x3f564c63	0.83710307
2	0xbefe7784	-0.49700558
3	0xbe781eeb	-0.24230544
4	0xbe54f94d	-0.20798226
5	0x3e95b026	0.29235953
6	0x3f4b8fec	0.7951648
7	0xbd85c1c1	-0.06531096
8	0xbe4c848a	-0.19972435
9	0x3e8d66a3	0.27617368
10	0xbf0ec935	-0.5577577
11	0x3e0e9ea7	0.13927709
12	0x3e9c174d	0.30486527
13	0xbeb3d6eb	-0.35124907
14	0xbec9c153	-0.39405307
15	0x3e669ccf	0.22520755
16	0x3db26dbc	0.087123364
17	0xbe14d959	-0.14536037
18	0x3e2e3d34	0.17015535
19	0x3e448d5b	0.19194548
20	0x3e3e019f	0.18555306
21	0x3f2d4139	0.67677647
22	0xbe59883b	-0.21243374
23	0x3f4074ae	0.7517804
24	0x3ec278f5	0.37982908
25	0x3e095458	0.13411081
26	0xbe3be8e5	-0.18350561
27	0xbe441e9c	-0.19152302
28	0xbf6082a9	-0.8769937
29	0x3cfe49ad	0.03104099
30	0x3e92b0dd	0.2865056
31	0xbcfffd51	-0.03124872
32	0xbf20bd06	-0.62788427
33	0xbedc3bfb	-0.4301451
34	0x3f2c6408	0.67340136
35	0xbefdf174	-0.49598277
36	0xbf33e82e	-0.70276153
37	0x3e82c632	0.25541836
38	0x3ed75f94	0.42065108
39	0xbe316ab1	-0.17325856
40	0x3eeb4dda	0.45957834
41	0x3e97bac5	0.2963468
42	0x3f4555fb	0.7708432
43	0xbed59985	-0.4171869
44	0xbded0ce2	-0.11574723
45	0x3dc798f9	0.09745974
46	0x3f040000	0.515625
47	0x3efcf67f	0.49406812
48	0x3f447a10	0.7674875
49	0x3dc71061	0.09719921
50	0x3ef0e3e8	0.4704888
51	0xbe4c3c0e	-0.19944784
52	0x3f09fdf6	0.5390314
53	0xbf245690	-0.64194584
54	0xbecc6731	-0.3992248
55	0xbf6176aa	-0.8807169
56	0x3f53111b	0.82447976
57	0x3f491d7b	0.7856061
58	0x3cb6b661	0.022303762
59	0xbf376368	-0.71636057
60	0xbd595322	-0.053057797
61	0x3eae42f5	0.3403546
62	0xbf658cf0	-0.8966818
63	0x3e67e0c9	0.22644342
64	0xbc94076d	-0.018069947
65	0xbea5ab93	-0.32357463
66	0x3d1e07a9	0.038581524
67	0xbe75631e	-0.23963591
68	0x3e80f42b	0.25186285
69	0x3f4af6cb	0.79282826
70	0x3e3ceae3	0.18448977
71	0x3bec9ade	0.00722061
72	0xbefbeccc	-0.492041
73	0xbf35e709	-0.71055657
74	0x3f0282ec	0.5098102
75	0xbec3f0d4	-0.38269675
76	0x3e56d883	0.2098103
77	0xbda90a09	-0.08253867
78	0x3e16067a	0.14650908
79	0x3e88d351	0.26723722
80	0xbe7a68f9	-0.24454106
81	0x3eb8302a	0.35974246
82	0x3eef3603	0.46720895
83	0x3f184da9	0.594935
84	0x3e990029	0.29882935
85	0x3e837997	0.25678703
86	0x3e0d9630	0.13826823
87	0x3f6be479	0.92145497
88	0x3f5e5996	0.8685545
89	0xbedf74c3	-0.4364377
90	0xbf513ece	-0.8173646
91	0x3ed89cf7	0.42307255
92	0xbebfb1e2	-0.374404
93	0xbe7327dc	-0.23745674
94	0x3f022e1a	0.50851595
95	0x3f4a57ad	0.7904003
96	0xbf098a03	-0.53726214
97	0xbf01755c	-0.505697
98	0xbe91bf90	-0.28466463
99	0xbed3e473	-0.4138523
100	0x3de73283	0.11288931
101	0xbef76dcf	-0.48325965
102	0xbf7e299a	-0.9928223
103	0xbf04d3c5	-0.51885635
104	0x3e18ec14	0.14933807
105	0xbef631ca	-0.4808486
106	0xbf291ef0	-0.6606283
107	0xbf16c9cc	-0.5890167
108	0xbebce914	-0.36896574
109	0xbee8ea02	-0.45491034
110	0xbf33a461	-0.701727
111	0xbf27f769	-0.6561189
112	0xbec6e2e5	-0.38844982
113	0x3f05bd7e	0.5224227
114	0x3eae6c01	0.34066775
115	0xbf0357c3	-0.5130579
116	0xbf058f23	-0.52171534
117	0xbf08fe05	-0.53512603
118	0xbd857d46	-0.06518035
119	0xbe8e0c77	-0.27743885
120	0xbeb6cb1b	-0.35701832
121	0xbe831ccb	-0.25607905
122	0x3e03746a	0.12837377
123	0xbefa5c59	-0.4889858
124	0xbdf6d687	-0.120526366
125	0x3f520210	0.820344
126	0xbf15c5e2	-0.5850507
127	0x3ee1c5e6	0.44096297

model.6.weight f4 [64, 128]
0	0x3d0caaec	0.03434269
1	0x3e39c24a	0.18140522
2	0x3cfc4d52	0.030798588
3	0x3d11404b	0.035461705
4	0xbe50ae47	-0.20378982
5	0x3e726eae	0.23675033
6	0x3e7b52c0	0.24543285
7	0xbd8b3aff	-0.06798362
8	0xbeab5d18	-0.33469462
9	0xbd9c0c2d	-0.0761951
10	0xbf092f81	-0.5358811
11	0xbc3e5410	-0.011616722
12	0x3e626e9d	0.22112508
13	0x3e1e350a	0.1544992
14	0xbe82a55b	-0.2551678
15	0xbe023d91	-0.12718798
16	0xbe659bee	-0.22422764
17	0x3ca54aa3	0.020177191
18	0x3e60e8d1	0.21963812
19	0x3e32db44	0.17466456
20	0x3e595d52	0.21227005
21	0x3e706d79	0.2347926
22	0xbe9bf30d	-0.3045887
23	0x3f0d4b19	0.55192715
24	0x3d82663f	0.06367158
25	0x3dfa4cc9	0.12221677
26	0x3c44f83c	0.012022074
27	0xbe9ec4d9	-0.31009558
28	0x3dd0e990	0.102007985
29	0x3e2193cd	0.15779038
30	0x3d512720	0.051062703
31	0x3e5fce15	0.21855958
32	0xbdb14a0c	-0.086567014
33	0x3e0b5e5f	0.13610218
34	0x3cfdfd5c	0.0310046
35	0xbec69118	-0.38782573
36	0xbdae546e	-0.085121974
37	0xbd73f6f1	-0.059561674
38	0x3f10cf0c	0.5656593
39	0x3e40fd88	0.18846714
40	0x3ea43a8b	0.32075915
41	0xbece21ad	-0.40260068
42	0x3e634480	0.221941
43	0xbdb5efc3	-0.088836215
44	0xbedb481c	-0.42828453
45	0x3e4ef518	0.20210683
46	0xbd1b6774	-0.037940457
47	0x3e9a75fe	0.30168146
48	0x3efbc23d	0.4917163
49	0xbf0a903d	-0.5412634
50	0x3f187312	0.59550583
51	0x3ca94ea8	0.020667389
52	0x3ed57f5f	0.4169874
53	0xbeaf4338	-0.3423097
54	0xbe7c964b	-0.24666707
55	0xbf237c00	-0.63861084
56	0x3e838afa	0.25691968
57	0xbe97940c	-0.29605138
58	0xbec9e754	-0.39434302
59	0xbf065b0c	-0.52482677
60	0xbdfa259b	-0.12214204
61	0xbc5199cb	-0.012793015
62	0xbeac4c8a	-0.33652145
63	0x3d34aafd	0.04410838
64	0x3e54e613	0.20790891
65	0xbcd7172c	-0.026256166
66	0x3e883199	0.2660034
67	0x3d99160f	0.074749105
68	0x3d1feb4a	0.03904275
69	0x3edf175d	0.43572512
70	0x3dfbcaf0	0.12294567
71	0x3ea9b1ba	0.33143407
72	0xbe2c5563	-0.16829447
73	0xbe777ece	-0.24169466
74	0x3c2c6c61	0.010523886
75	0xbf3e526b	-0.7434451
76	0xbc924490	-0.017854959
77	0xbd85ba28	-0.06529647
78	0xbe440898	-0.19143903
79	0x3b15557d	0.002278655
80	0xbe7ca622	-0.2467275
81	0xbd2e71bf	-0.042588945
82	0x3e9306d9	0.28716162
83	0x3ecc4e40	0.3990345
84	0x3ce888fc	0.028385632
85	0x3f16c608	0.5889592
86	0x3dd865b7	0.105662756
87	0x3e73c87a	0.23806944
88	0x3e9a1e67	0.3010132
89	0xbdbb46ba	-0.091443494
90	0xbe1eab6a	-0.15495077
91	0xbc859f89	-0.016311424
92	0xbe48b070	-0.19598556
93	0x3e1e012b	0.15430133
94	0x3e23d5c0	0.15999508
95	0x3dd72268	0.10504609
96	0xbeafc0c7	-0.34326765
97	0xbebb9e9e	-0.36644453
98	0xbd1af234	-0.03782864
99	0xbe8874f6	-0.26651734
100	0x3e9e1d9c	0.30881965
101	0xbeb42a2d	-0.35188428
102	0xbaeeddbb	-0.001822404
103	0x3dadc33d	0.08484504
104	0xbe59e2cb	-0.21277921
105	0xbf36a3d5	-0.7134374
106	0xbf12ef8d	-0.57396775
107	0x3da2f382	0.07956602
108	0xbc93447a	-0.017976988
109	0xbe1e9092	-0.15484837
110	0x3d6c39da	0.05767236
111	0xbea1b62c	-0.315843
112	0xbf535311	-0.82548624
113	0x3d18205b	0.03714023
114	0x3e325b4f	0.17417644
115	0xbe39ac34	-0.18132097
116	0xbd95dfb9	-0.07318062
117	0xbf3462fd	-0.70463544
118	0x3dafd605	0.08585743
119	0xbdcea781	-0.100905426
120	0x3d87b772	0.06626786
121	0x3e532512	0.2061961
122	0x3f0778c3	0.5291864
123	0xbe6db20c	-0.2321245
124	0xbe5d2ad6	-0.21598372
125	0x3cef2667	0.029193116
126	0xbe783c91	-0.24241854
127	0x3e29e485	0.1659108
128	0x3cbec1d7	0.02328579
129	0xbe85e0ff	-0.2614822
130	0x3e033209	0.12812056
131	0x3e8598de	0.2609319
132	0x3ea64e03	0.32481393
133	0x3e48eeef	0.19622396
134	0x3cef9a5e	0.029248413
135	0x3e04b090	0.12957978
136	0x3e59efc5	0.21282871
137	0xbea4380a	-0.32074004
138	0x3d6632fb	0.056200963
139	0x3a9d9321	0.0012021997
140	0x3e893cc8	0.26804185
141	0xbdff8d60	-0.12478137
142	0xbe89c2cd	-0.26906434
143	0xbe46dad4	-0.19419414
144	0x3e81807e	0.25293344
145	0xbe459358	-0.19294488
146	0x3ec4a653	0.38408145
147	0x3f0ca830	0.54944134
148	0xbe4981a5	-0.19678362
149	0x3f68a8f2	0.9088279
150	0xbca622e5	-0.02028031
151	0x3ee118ae	0.43964142
152	0xbec0d283	-0.37660608
153	0xbddf5802	-0.10905458
154	0x3e88e4c8	0.26737046
155	0xbed1a74e	-0.40947956
156	0xbe8a1103	-0.26966104
157	0xbda94ac3	-0.08266213
158	0x3e7897f8	0.24276721
159	0x3f05c5bd	0.5225485
160	0xbdbf4e8a	-0.09341152
161	0x3e824fef	0.2545161
162	0x3ea7dbb6	0.32784814
163	0xbc3c29b5	-0.011484553
164	0xbde716af	-0.112836234
165	0x3e39c6d7	0.18142258
166	0x3e3ff28b	0.18744867
167	0x3ce0b6b1	0.027430864
168	0xbeaad0ac	-0.3336233
169	0x3d68ebf9	0.056865666
170	0xbc1e933c	-0.009678658
171	0xbebd0abf	-0.3692226
172	0x3eabb7d8	0.335387
173	0xbe4c8f4a	-0.19976535
174	0x3ec63bca	0.3871749
175	0x3ef176c9	0.47160938
176	0x3dcab944	0.09898618
177	0xbd2708b3	-0.04077978
178	0xbe82b28a	-0.2552684
179	0x3dc6bdc1	0.097041614
180	0x3e000cdf	0.1250491
181	0xbd195748	-0.037436754
182	0x3ce69474	0.02814696
183	0xbe58e3e0	-0.21180677
184	0x3ee631c0	0.4495983
185	0x3e0fd7f6	0.14047226
186	0xbdffd81f	-0.12492394
187	0xbf1b3a74	-0.6063607
188	0x3dd17487	0.10227304
189	0x3e477a49	0.19480242
190	0xbe66c4e9	-0.22536053
191	0xbecf3a7e	-0.40474313
192	0xbdd114c0	-0.10209036
193	0x3ef3c45c	0.47610748
194	0x3eaf10fd	0.3419265
195	0xbe6a9d09	-0.22911467
196	0x3e4caca0	0.19987726
197	0x3f3a14d5	0.7268804
198	0xbe9ba48d	-0.3039898
199	0xbdd593b8	-0.10428566
200	0xbee2009a	-0.44141084
201	0x3d4fd711	0.050742213
202	0xba525f3d	-0.0008025056
203	0xbd6afd68	-0.057370573
204	0x3e2ce198	0.16882932
205	0xbd32c804	-0.04364778
206	0xbe84d56c	-0.25944078
207	0x3f003d7c	0.5009382
208	0x3d10b047	0.03532436
209	0xbea00804	-0.31256115
210	0xbdbb8cb6	-0.09157698
211	0x3ee27420	0.4422922
212	0x3ea6e092	0.3259321
213	0x3ed8e5ea	0.4236291
214	0x3e20ee42	0.15715888
215	0x3f2c1a7e	0.67227924
216	0x3f5d7afd	0.8651579
217	0xbe063af2	-0.13108423
218	0xbded1b19	-0.11577434
219	0x3e996d4b	0.29966196
220	0xbe0f3e31	-0.13988568
221	0xbd7f3db8	-0.06231472
222	0x3e6da64d	0.2320797
223	0x3d05167d	0.03249215
224	0xbe923b09	-0.28560665
225	0xbe5519ec	-0.2081067
226	0xbbfff21b	-0.0078108436
227	0x3ba35b4b	0.004985248
228	0x3ea45636	0.32097024
229	0xbecd303f	-0.4007587
230	0xbf3b0864	-0.7305968
231	0x3da0daf0	0.07854259
232	0x3db4b8af	0.08824288
233	0xbe9a7cf7	-0.30173466
234	0x3db79c38	0.08965343
235	0xbe01a0b3	-0.12658958
236	0xbb9c8928	-0.0047770925
237	0xbd6747ef	-0.056465086
238	0xbecedea0	-0.40404224
239	0xbf23c18f	-0.6396722
240	0xbeadc832	-0.339418
241	0xbe4754e9	-0.19465984
242	0xbd9d2110	-0.07672322
243	0x3e8f981e	0.28045744
244	0x3bb7a4de	0.0056043705
245	0xbe051000	-0.12994385
246	0xbc8de288	-0.017319933
247	0xbe1969f2	-0.14981821
248	0x3e142f02	0.14471057
249	0x3ee5f448	0.44912934
250	0xbe12a355	-0.14320119
251	0xbdc875bd	-0.09788082
252	0xbec2b836	-0.38031167
253	0x3e94e3d6	0.29080075
254	0xbd5663c4	-0.052341238
255	0x3f279136	0.6545595

model.6.bias f4 [64]
0	0xbd1dedc5	-0.038556833
1	0x3d8eb1c3	0.06967499
2	0x3e69d85b	0.2283644
3	0xbeb64c94	-0.356053
4	0x3d1d716a	0.03843824
5	0xbd9ddc38	-0.07708019
6	0xbe832e50	-0.2562127
7	0x3e5f1831	0.21786572
8	0xbed60216	-0.41798466
9	0xbefab958	-0.4896953
10	0x3d8b99fa	0.06816478
11	0x3e9a5ca9	0.3014882
12	0xbdbd76e9	-0.09251196
13	0x3caaa1be	0.020829078
14	0xbe585def	-0.21129583
15	0x3de14ecd	0.11001358
16	0xbe5bec27	-0.21476804
17	0x3e6f506d	0.23370524
18	0xbe348bce	-0.17631456
19	0xbdc5b37c	-0.096533746
20	0xbd97518c	-0.07388601
21	0x3ebf39e1	0.37348846
22	0x3ec647a4	0.38726532
23	0xbdbdfc15	-0.092765965
24	0x3dda3418	0.10654467
25	0x3de42f7d	0.1114187
26	0xbe437722	-0.19088414
27	0x3deb85cf	0.11500131
28	0xbe5c6683	-0.2152348
29	0xbd83bc1e	-0.06432365
30	0x3e0da081	0.13830759
31	0x3e8fce80	0.28087234
32	0x3f3ef010	0.74585056
33	0x3e7756c2	0.24154189
34	0xbdd61d9b	-0.104548655
35	0x3e16c709	0.14724363
36	0x3e2feb27	0.17179547
37	0xbe81a16f	-0.25318477
38	0xbb65a1ee	-0.0035039145
39	0xbc809ac4	-0.015698798
40	0xbdc81e4a	-0.09771402
41	0x3f051a7d	0.5199354
42	0x3e8c8b06	0.27449816
43	0xbee341ce	-0.44386142
44	0x3efeedf5	0.49790922
45	0x3ece3278	0.4027288
46	0x3f17931e	0.5920886
47	0xbe097298	-0.1342262
48	0xbd247ef8	-0.04016015
49	0x3e76488b	0.2405111
50	0x3eae645a	0.34060937
51	0xbce35ca8	-0.027754143
52	0x3e2a81ee	0.16651127
53	0x3e6eb0cd	0.23309632
54	0xbe0df7b1	-0.13864018
55	0x3f090dfb	0.5353696
56	0xbf319efa	-0.69383204
57	0x3e85fa0a	0.26167327
58	0x3e403db9	0.18773545
59	0xbe183c83	-0.14866833
60	0xbe06d5fb	-0.13167565
61	0xbd92aeb5	-0.07162229
62	0x3f46ccce	0.7765626
63	0x3e246b31	0.16056515

model.8.weight f4 [2, 64]
0	0x3ddbcd53	0.10732522
1	0xbc637c0c	-0.013884556
2	0x3c254721	0.010087759
3	0x3e112d56	0.1417745
4	0x3dcb3cc1	0.09923697
5	0x3c092409	0.008370408
6	0x3d1e340b	0.03862385
7	0xbd35a1f9	-0.044343922
8	0x3e70fe5d	0.23534532
9	0xbb9b4032	-0.0047378773
10	0xbe1eb0c8	-0.15497124
11	0x3e49e0a5	0.19714601
12	0x3e8a9f17	0.270745
13	0xbe249c52	-0.16075256
14	0xbe7d8862	-0.24759057
15	0xbdd276a9	-0.10276539
16	0xbe7b5c16	-0.24546847
17	0xbd85fde0	-0.065425634
18	0xbe27438b	-0.1633436
19	0xbea0d530	-0.3141265
20	0xbe4fd3b0	-0.20295596
21	0xbeaa6417	-0.33279487
22	0xbe536ee6	-0.20647773
23	0x3dd5e850	0.10444701
24	0xbd72b895	-0.059258062
25	0x3e9c7060	0.30554485
26	0x3e4053f2	0.18782023
27	0x3ead15ac	0.33805597
28	0xbcb7d668	-0.022441104
29	0xbcc19db2	-0.023634765
30	0x3c950d1f	0.018194733
31	0xbeebc8c0	-0.46051598
32	0x3edfcd71	0.43711427
33	0xbe24f671	-0.16109635
34	0x3d35dbf7	0.044399228
35	0xbd1ac2f7	-0.03778359
36	0xbd95fa18	-0.07323092
37	0xbe916326	-0.28395957
38	0xbea8e05c	-0.32983673
39	0xbe7a05c3	-0.2441626
40	0x3cf7d2ef	0.030251948
41	0x3d94a868	0.072586834
42	0x3dc89c12	0.09795393
43	0xbeaac501	-0.33353427
44	0x3cc22041	0.02369702
45	0x3ecfd03a	0.40588552
46	0xbea6c355	-0.32570902
47	0x3e9f0f72	0.3106647
48	0xbe9bf68e	-0.30461544
49	0x3eaa130d	0.3321766
50	0x3d2b5466	0.041828535
51	0xbe4b8d7a	-0.19878188
52	0xbe068543	-0.13136773
53	0xbec18f02	-0.3780442
54	0x3ddc91f1	0.107700236
55	0x3d46028c	0.048342273
56	0x3e065786	0.13119325
57	0x3dd17e1c	0.102291316
58	0xbe042569	-0.12904896
59	0x3e14ff66	0.14550552
60	0xbeb5020b	-0.3535312
61	0xbeb3faf3	-0.35152397
62	0x3ed2a513	0.41141567
63	0xbe2b017f	-0.1669979
64	0xbeb028a4	-0.34406006
65	0x3e937c6d	0.28805867
66	0xbe07a8f2	-0.13248041
67	0xbe9e2ae4	-0.30892098
68	0xbe41efed	-0.1893918
69	0x3e9f3ffe	0.3110351
70	0x3e649c8f	0.22325347
71	0xbdd55d9f	-0.104182474
72	0x3e85f623	0.2616435
73	0x3e847cee	0.25876564
74	0x3d66bfce	0.056335263
75	0xbe5195bb	-0.20467274
76	0xbd8908ca	-0.066911295
77	0x3e5b2107	0.21399318
78	0xbe3d7cfb	-0.18504708
79	0x3eba45c1	0.36381343
80	0xbe4a72df	-0.19770382
81	0x3e145961	0.1448722
82	0xbaac3fbc	-0.0013141553
83	0x3bce3358	0.0062927417
84	0xbd3201af	-0.043458637
85	0xbe60af31	-0.2194183
86	0xbebfa2c4	-0.37428868
87	0x3d22f5c0	0.039785147
88	0xbe8604f5	-0.26175657
89	0x3e21e0ef	0.15808462
90	0xbe8e0866	-0.27740782
91	0xbea7b8d0	-0.32758188
92	0xbe81dc83	-0.2536355
93	0x3d185f0b	0.037200015
94	0x3e9e7bf9	0.3095396
95	0x3e45dae8	0.19321787
96	0xbeb2699a	-0.34846193
97	0x3cd06260	0.025437534
98	0xbe1a6a35	-0.15079577
99	0x3ead42cf	0.33840033
100	0xbe98ba46	-0.29829615
101	0x3dc7afd6	0.09750335
102	0x3c994f9b	0.018714717
103	0x3d89aa9f	0.067219965
104	0xbecadced	-0.39621678
105	0x3e9f273d	0.31084624
106	0x3e15ca37	0.1462792
107	0x3e82f3ee	0.2557673
108	0x3e9380b3	0.28809127
109	0xbd1dd9d0	-0.0385378
110	0x3e97b652	0.29631287
111	0x3e5d10a0	0.21588373
112	0x3ed70bfd	0.42001334
113	0x3e156b95	0.1459182
114	0x3df66f81	0.120329864
115	0x3e9b34f0	0.30313826
116	0xbc887833	-0.016658878
117	0xbd82f707	-0.06394773
118	0xbdb30200	-0.08740616
119	0xbdc0e574	-0.09418765
120	0x3ca16932	0.019703481
121	0x3dffa9c3	0.12483551
122	0x3cf1dc1f	0.029523907
123	0xbe8a6f59	-0.27038077
124	0x3e691b20	0.22764254
125	0x3e50eb00	0.20402145
126	0xbf0caf31	-0.5495482
127	0x3e805e37	0.2507188

model.8.bias f4 [2]
0	0x3d665d21	0.05624116
1	0xbd658b6e	-0.056041174
